…
2025-04-29 22:24:56 - trading_env - environments\trading_env.py:500 - INFO - Number of stocks: 29
2025-04-29 22:24:56 - trading_env - environments\trading_env.py:501 - INFO - Action space: Box(-2147483646, 2147483645, (29,), int32)
2025-04-29 22:24:56 - trading_env - environments\trading_env.py:491 - INFO - Random seed set to 671854
2025-04-29 22:24:56 - setup_logging - scripts\setup_experiment.py:356 - INFO - Initializing DDPGAgent...
2025-04-29 22:24:56 - ddpg_agent - models\agents\ddpg_agent.py:65 - INFO - DDPG Actor Network architecture: ActorNetwork(
  (activation): ReLU()
  (layers): ModuleList(
    (0): Linear(in_features=4091, out_features=256, bias=True)
    (1): Linear(in_features=256, out_features=128, bias=True)
    (2): ReLU()
    (3): Linear(in_features=128, out_features=64, bias=True)
    (4): ReLU()
  )
  (direction_head): DirectionHead(
    (linear): Linear(in_features=64, out_features=87, bias=True)
  )
  (alpha_head): LinearHead(
    (linear): Linear(in_features=64, out_features=29, bias=True)
  )
  (beta_head): LinearHead(
    (linear): Linear(in_features=64, out_features=29, bias=True)
  )
)
2025-04-29 22:24:56 - ddpg_agent - models\agents\ddpg_agent.py:130 - INFO - DDPG Critic Network architecture: CriticNetwork(
  (activation): ReLU()
  (layers): ModuleList(
    (0): Linear(in_features=4120, out_features=256, bias=True)
    (1): Linear(in_features=256, out_features=128, bias=True)
    (2): ReLU()
    (3): Linear(in_features=128, out_features=64, bias=True)
    (4): ReLU()
  )
  (q_head): Linear(in_features=64, out_features=1, bias=True)
)
2025-04-29 22:24:56 - ddpg_agent - models\agents\ddpg_agent.py:65 - INFO - DDPG Actor Network architecture: ActorNetwork(
  (activation): ReLU()
  (layers): ModuleList(
    (0): Linear(in_features=4091, out_features=256, bias=True)
    (1): Linear(in_features=256, out_features=128, bias=True)
    (2): ReLU()
    (3): Linear(in_features=128, out_features=64, bias=True)
    (4): ReLU()
  )
  (direction_head): DirectionHead(
    (linear): Linear(in_features=64, out_features=87, bias=True)
  )
  (alpha_head): LinearHead(
    (linear): Linear(in_features=64, out_features=29, bias=True)
  )
  (beta_head): LinearHead(
    (linear): Linear(in_features=64, out_features=29, bias=True)
  )
)
2025-04-29 22:24:56 - ddpg_agent - models\agents\ddpg_agent.py:130 - INFO - DDPG Critic Network architecture: CriticNetwork(
  (activation): ReLU()
  (layers): ModuleList(
    (0): Linear(in_features=4120, out_features=256, bias=True)
    (1): Linear(in_features=256, out_features=128, bias=True)
    (2): ReLU()
    (3): Linear(in_features=128, out_features=64, bias=True)
    (4): ReLU()
  )
  (q_head): Linear(in_features=64, out_features=1, bias=True)
)
2025-04-29 22:24:57 - setup_logging - scripts\setup_experiment.py:477 - INFO - Setting up experiment manager...
2025-04-29 22:24:57 - experiment_ddpg_test - models\experiment_manager.py:197 - INFO - Saved experiment configuration to experiments\ddpg_test\config
2025-04-29 22:24:57 - experiment_ddpg_test - models\experiment_manager.py:238 - INFO - Saved data information to experiments\ddpg_test\data
…
