…
2025-04-17 15:42:06 - trading_env - environments\trading_env.py:486 - INFO - Number of stocks: 29
2025-04-17 15:42:06 - trading_env - environments\trading_env.py:487 - INFO - Action space: Box(-2147483646, 2147483645, (29,), int32)
2025-04-17 15:42:06 - trading_env - environments\trading_env.py:477 - INFO - Random seed set to 892445
2025-04-17 15:42:06 - setup_logging - scripts\setup_experiment.py:296 - INFO - Initializing DirectionalDQNAgent...
2025-04-17 15:42:06 - directional_dqn_agent - models\agents\directional_dqn_agent.py:64 - INFO - DirectionalDQN Network architecture: DirectionalDQNNetwork(
  (activation): ReLU()
  (layers): ModuleList(
    (0): Linear(in_features=6411, out_features=1024, bias=True)
    (1): Linear(in_features=1024, out_features=512, bias=True)
    (2): ReLU()
    (3): Linear(in_features=512, out_features=256, bias=True)
    (4): ReLU()
    (5): Linear(in_features=256, out_features=128, bias=True)
    (6): ReLU()
    (7): Linear(in_features=128, out_features=64, bias=True)
    (8): ReLU()
    (9): Linear(in_features=64, out_features=32, bias=True)
    (10): ReLU()
  )
  (direction_head): DirectionHead(
    (linear): Linear(in_features=32, out_features=87, bias=True)
  )
)
2025-04-17 15:42:07 - directional_dqn_agent - models\agents\directional_dqn_agent.py:64 - INFO - DirectionalDQN Network architecture: DirectionalDQNNetwork(
  (activation): ReLU()
  (layers): ModuleList(
    (0): Linear(in_features=6411, out_features=1024, bias=True)
    (1): Linear(in_features=1024, out_features=512, bias=True)
    (2): ReLU()
    (3): Linear(in_features=512, out_features=256, bias=True)
    (4): ReLU()
    (5): Linear(in_features=256, out_features=128, bias=True)
    (6): ReLU()
    (7): Linear(in_features=128, out_features=64, bias=True)
    (8): ReLU()
    (9): Linear(in_features=64, out_features=32, bias=True)
    (10): ReLU()
  )
  (direction_head): DirectionHead(
    (linear): Linear(in_features=32, out_features=87, bias=True)
  )
)
2025-04-17 15:42:07 - setup_logging - scripts\setup_experiment.py:392 - INFO - Setting up experiment manager...
2025-04-17 15:42:07 - experiment_experiment_20250417_154152 - models\experiment_manager.py:200 - INFO - Saved experiment configuration to experiments\experiment_20250417_154152\config
2025-04-17 15:42:07 - experiment_experiment_20250417_154152 - models\experiment_manager.py:241 - INFO - Saved data information to experiments\experiment_20250417_154152\data
…
